…
(array([1, 2, 3, 4, 5, 6]), array([1226, 1073,  986, 1286, 1374, 1407]))
(array([0, 1, 2, 3, 4, 5]), array([1226, 1073,  986, 1286, 1374, 1407]))
-----------------
Training data shape: (5881, 128, 3)
Validation data shape: (1471, 128, 3)
Testing data shape: (2947, 128, 3)
(5881, 128, 3)
0 <function resampling_fast_random at 0x150bf9998c20>
Model: "base_model_simclr"
┏━━━━━━━━━━━━━━━━━━━━━━━━━━━━━━━━━┳━━━━━━━━━━━━━━━━━━━━━━━━┳━━━━━━━━━━━━━━━┓
┃ Layer (type)                    ┃ Output Shape           ┃       Param # ┃
┡━━━━━━━━━━━━━━━━━━━━━━━━━━━━━━━━━╇━━━━━━━━━━━━━━━━━━━━━━━━╇━━━━━━━━━━━━━━━┩
│ input (InputLayer)              │ (None, 128, 3)         │             0 │
├─────────────────────────────────┼────────────────────────┼───────────────┤
│ conv1d (Conv1D)                 │ (None, 105, 32)        │         2,336 │
├─────────────────────────────────┼────────────────────────┼───────────────┤
│ dropout (Dropout)               │ (None, 105, 32)        │             0 │
├─────────────────────────────────┼────────────────────────┼───────────────┤
│ conv1d_1 (Conv1D)               │ (None, 90, 64)         │        32,832 │
├─────────────────────────────────┼────────────────────────┼───────────────┤
│ dropout_1 (Dropout)             │ (None, 90, 64)         │             0 │
├─────────────────────────────────┼────────────────────────┼───────────────┤
│ conv1d_2 (Conv1D)               │ (None, 83, 96)         │        49,248 │
├─────────────────────────────────┼────────────────────────┼───────────────┤
│ dropout_2 (Dropout)             │ (None, 83, 96)         │             0 │
├─────────────────────────────────┼────────────────────────┼───────────────┤
│ global_max_pooling1d            │ (None, 96)             │             0 │
│ (GlobalMaxPooling1D)            │                        │               │
├─────────────────────────────────┼────────────────────────┼───────────────┤
│ dense (Dense)                   │ (None, 256)            │        24,832 │
├─────────────────────────────────┼────────────────────────┼───────────────┤
│ activation (Activation)         │ (None, 256)            │             0 │
├─────────────────────────────────┼────────────────────────┼───────────────┤
│ dense_1 (Dense)                 │ (None, 128)            │        32,896 │
├─────────────────────────────────┼────────────────────────┼───────────────┤
│ activation_1 (Activation)       │ (None, 128)            │             0 │
├─────────────────────────────────┼────────────────────────┼───────────────┤
│ dense_2 (Dense)                 │ (None, 50)             │         6,450 │
└─────────────────────────────────┴────────────────────────┴───────────────┘
 Total params: 148,594 (580.45 KB)
 Trainable params: 148,594 (580.45 KB)
 Non-trainable params: 0 (0.00 B)
epoch: 1 loss: 12.390
epoch: 2 loss: 10.978
epoch: 3 loss: 10.085
epoch: 4 loss: 9.052
epoch: 5 loss: 8.348
epoch: 6 loss: 8.129
epoch: 7 loss: 7.713
epoch: 8 loss: 8.681
epoch: 9 loss: 7.322
epoch: 10 loss: 6.602
…
       [  0,   0,   0, 275, 174,  42],
       [  0,   0,   0,  84, 421,  27],
       [  0,   1,   0, 107,  31, 398]]), 'F1 Macro': 0.7990487192558012, 'F1 Micro': 0.7936884967763828, 'F1 Weighted': 0.7935184819980785, 'Precision': 0.8041492652398455, 'Recall': 0.799828103842439, 'Kappa': 0.7521583728933594}
Model: "base_model_simclr_layer_7"
┏━━━━━━━━━━━━━━━━━━━━━━━━━━━━━━━━━┳━━━━━━━━━━━━━━━━━━━━━━━━┳━━━━━━━━━━━━━━━┓
┃ Layer (type)                    ┃ Output Shape           ┃       Param # ┃
┡━━━━━━━━━━━━━━━━━━━━━━━━━━━━━━━━━╇━━━━━━━━━━━━━━━━━━━━━━━━╇━━━━━━━━━━━━━━━┩
│ input (InputLayer)              │ (None, 128, 3)         │             0 │
├─────────────────────────────────┼────────────────────────┼───────────────┤
│ conv1d (Conv1D)                 │ (None, 105, 32)        │         2,336 │
├─────────────────────────────────┼────────────────────────┼───────────────┤
│ dropout (Dropout)               │ (None, 105, 32)        │             0 │
├─────────────────────────────────┼────────────────────────┼───────────────┤
│ conv1d_1 (Conv1D)               │ (None, 90, 64)         │        32,832 │
├─────────────────────────────────┼────────────────────────┼───────────────┤
│ dropout_1 (Dropout)             │ (None, 90, 64)         │             0 │
├─────────────────────────────────┼────────────────────────┼───────────────┤
│ conv1d_2 (Conv1D)               │ (None, 83, 96)         │        49,248 │
├─────────────────────────────────┼────────────────────────┼───────────────┤
│ dropout_2 (Dropout)             │ (None, 83, 96)         │             0 │
├─────────────────────────────────┼────────────────────────┼───────────────┤
│ global_max_pooling1d            │ (None, 96)             │             0 │
│ (GlobalMaxPooling1D)            │                        │               │
└─────────────────────────────────┴────────────────────────┴───────────────┘
 Total params: 84,416 (329.75 KB)
 Trainable params: 49,248 (192.38 KB)
 Non-trainable params: 35,168 (137.38 KB)
[1m1/5[0m [32m━━━━[0m[37m━━━━━━━━━━━━━━━━[0m [1m0s[0m 70ms/step[1m4/5[0m [32m━━━━━━━━━━━━━━━━[0m[37m━━━━[0m [1m0s[0m 19ms/step[1m5/5[0m [32m━━━━━━━━━━━━━━━━━━━━[0m[37m[0m [1m0s[0m 29ms/step[1m5/5[0m [32m━━━━━━━━━━━━━━━━━━━━[0m[37m[0m [1m0s[0m 32ms/step
…
