…
(array([1, 2, 3, 4, 5, 6]), array([1226, 1073,  986, 1286, 1374, 1407]))
(array([0, 1, 2, 3, 4, 5]), array([1226, 1073,  986, 1286, 1374, 1407]))
-----------------
Training data shape: (5881, 128, 3)
Validation data shape: (1471, 128, 3)
Testing data shape: (2947, 128, 3)
(5881, 128, 3)
0 <function rotation_transform_vectorized at 0x15126c654f40>
Model: "base_model_simclr"
┏━━━━━━━━━━━━━━━━━━━━━━━━━━━━━━━━━┳━━━━━━━━━━━━━━━━━━━━━━━━┳━━━━━━━━━━━━━━━┓
┃ Layer (type)                    ┃ Output Shape           ┃       Param # ┃
┡━━━━━━━━━━━━━━━━━━━━━━━━━━━━━━━━━╇━━━━━━━━━━━━━━━━━━━━━━━━╇━━━━━━━━━━━━━━━┩
│ input (InputLayer)              │ (None, 128, 3)         │             0 │
├─────────────────────────────────┼────────────────────────┼───────────────┤
│ conv1d (Conv1D)                 │ (None, 105, 32)        │         2,336 │
├─────────────────────────────────┼────────────────────────┼───────────────┤
│ dropout (Dropout)               │ (None, 105, 32)        │             0 │
├─────────────────────────────────┼────────────────────────┼───────────────┤
│ conv1d_1 (Conv1D)               │ (None, 90, 64)         │        32,832 │
├─────────────────────────────────┼────────────────────────┼───────────────┤
│ dropout_1 (Dropout)             │ (None, 90, 64)         │             0 │
├─────────────────────────────────┼────────────────────────┼───────────────┤
│ conv1d_2 (Conv1D)               │ (None, 83, 96)         │        49,248 │
├─────────────────────────────────┼────────────────────────┼───────────────┤
│ dropout_2 (Dropout)             │ (None, 83, 96)         │             0 │
├─────────────────────────────────┼────────────────────────┼───────────────┤
│ global_max_pooling1d            │ (None, 96)             │             0 │
│ (GlobalMaxPooling1D)            │                        │               │
├─────────────────────────────────┼────────────────────────┼───────────────┤
│ dense (Dense)                   │ (None, 256)            │        24,832 │
├─────────────────────────────────┼────────────────────────┼───────────────┤
│ activation (Activation)         │ (None, 256)            │             0 │
├─────────────────────────────────┼────────────────────────┼───────────────┤
│ dense_1 (Dense)                 │ (None, 128)            │        32,896 │
├─────────────────────────────────┼────────────────────────┼───────────────┤
│ activation_1 (Activation)       │ (None, 128)            │             0 │
├─────────────────────────────────┼────────────────────────┼───────────────┤
│ dense_2 (Dense)                 │ (None, 50)             │         6,450 │
└─────────────────────────────────┴────────────────────────┴───────────────┘
 Total params: 148,594 (580.45 KB)
 Trainable params: 148,594 (580.45 KB)
 Non-trainable params: 0 (0.00 B)
epoch: 1 loss: 12.142
epoch: 2 loss: 11.369
epoch: 3 loss: 10.679
epoch: 4 loss: 10.225
epoch: 5 loss: 9.869
epoch: 6 loss: 9.463
epoch: 7 loss: 9.468
epoch: 8 loss: 9.362
epoch: 9 loss: 8.828
epoch: 10 loss: 8.664
…
       [  0,   0,   0, 159, 271,  61],
       [  5,   0,   0,  82, 416,  29],
       [  0,   0,   0,  71, 108, 358]]), 'F1 Macro': 0.7709076288512903, 'F1 Micro': 0.7678995588734306, 'F1 Weighted': 0.7623409273578692, 'Precision': 0.7846259095676271, 'Recall': 0.7750682979029809, 'Kappa': 0.7208474115747032}
Model: "base_model_simclr_layer_7"
┏━━━━━━━━━━━━━━━━━━━━━━━━━━━━━━━━━┳━━━━━━━━━━━━━━━━━━━━━━━━┳━━━━━━━━━━━━━━━┓
┃ Layer (type)                    ┃ Output Shape           ┃       Param # ┃
┡━━━━━━━━━━━━━━━━━━━━━━━━━━━━━━━━━╇━━━━━━━━━━━━━━━━━━━━━━━━╇━━━━━━━━━━━━━━━┩
│ input (InputLayer)              │ (None, 128, 3)         │             0 │
├─────────────────────────────────┼────────────────────────┼───────────────┤
│ conv1d (Conv1D)                 │ (None, 105, 32)        │         2,336 │
├─────────────────────────────────┼────────────────────────┼───────────────┤
│ dropout (Dropout)               │ (None, 105, 32)        │             0 │
├─────────────────────────────────┼────────────────────────┼───────────────┤
│ conv1d_1 (Conv1D)               │ (None, 90, 64)         │        32,832 │
├─────────────────────────────────┼────────────────────────┼───────────────┤
│ dropout_1 (Dropout)             │ (None, 90, 64)         │             0 │
├─────────────────────────────────┼────────────────────────┼───────────────┤
│ conv1d_2 (Conv1D)               │ (None, 83, 96)         │        49,248 │
├─────────────────────────────────┼────────────────────────┼───────────────┤
│ dropout_2 (Dropout)             │ (None, 83, 96)         │             0 │
├─────────────────────────────────┼────────────────────────┼───────────────┤
│ global_max_pooling1d            │ (None, 96)             │             0 │
│ (GlobalMaxPooling1D)            │                        │               │
└─────────────────────────────────┴────────────────────────┴───────────────┘
 Total params: 84,416 (329.75 KB)
 Trainable params: 49,248 (192.38 KB)
 Non-trainable params: 35,168 (137.38 KB)
[1m1/5[0m [32m━━━━[0m[37m━━━━━━━━━━━━━━━━[0m [1m0s[0m 69ms/step[1m4/5[0m [32m━━━━━━━━━━━━━━━━[0m[37m━━━━[0m [1m0s[0m 22ms/step[1m5/5[0m [32m━━━━━━━━━━━━━━━━━━━━[0m[37m[0m [1m0s[0m 30ms/step[1m5/5[0m [32m━━━━━━━━━━━━━━━━━━━━[0m[37m[0m [1m0s[0m 33ms/step
…
