…
(array([1, 2, 3, 4, 5, 6]), array([1282, 1146, 1308,  546,  449,  480]))
-----------------
Training data shape: (4168, 400, 3)
Validation data shape: (1043, 400, 3)
Testing data shape: (1419, 400, 3)
<function channel_shuffle_transform_vectorized at 0x15545b482f20>
<function time_segment_permutation_transform_improved at 0x15545b482fc0>
Model: "sincnet_model_simclr"
┏━━━━━━━━━━━━━━━━━━━━━━━━━━━━━━━━━┳━━━━━━━━━━━━━━━━━━━━━━━━┳━━━━━━━━━━━━━━━┓
┃ Layer (type)                    ┃ Output Shape           ┃       Param # ┃
┡━━━━━━━━━━━━━━━━━━━━━━━━━━━━━━━━━╇━━━━━━━━━━━━━━━━━━━━━━━━╇━━━━━━━━━━━━━━━┩
│ input (InputLayer)              │ (None, 400, 3)         │             0 │
├─────────────────────────────────┼────────────────────────┼───────────────┤
│ ln_inp_flatten (Reshape)        │ (None, 1200)           │             0 │
├─────────────────────────────────┼────────────────────────┼───────────────┤
│ ln_inp (LayerNorm)              │ (None, 1200)           │         2,400 │
├─────────────────────────────────┼────────────────────────┼───────────────┤
│ ln_inp_restore (Reshape)        │ (None, 400, 3)         │             0 │
├─────────────────────────────────┼────────────────────────┼───────────────┤
│ channel_mix (Conv1D)            │ (None, 400, 1)         │             3 │
├─────────────────────────────────┼────────────────────────┼───────────────┤
│ sincconv (SincConv_fast)        │ (None, 350, 40)        │            80 │
├─────────────────────────────────┼────────────────────────┼───────────────┤
│ abs_sinc (AbsoluteValue)        │ (None, 350, 40)        │             0 │
├─────────────────────────────────┼────────────────────────┼───────────────┤
│ maxpool_0 (MaxPooling1D)        │ (None, 116, 40)        │             0 │
├─────────────────────────────────┼────────────────────────┼───────────────┤
│ laynorm_0 (LayerNormalization)  │ (None, 116, 40)        │            80 │
├─────────────────────────────────┼────────────────────────┼───────────────┤
│ act_0 (Activation)              │ (None, 116, 40)        │             0 │
├─────────────────────────────────┼────────────────────────┼───────────────┤
│ drop_0 (Dropout)                │ (None, 116, 40)        │             0 │
├─────────────────────────────────┼────────────────────────┼───────────────┤
│ conv1d_1 (Conv1D)               │ (None, 112, 60)        │        12,000 │
├─────────────────────────────────┼────────────────────────┼───────────────┤
│ maxpool_1 (MaxPooling1D)        │ (None, 37, 60)         │             0 │
├─────────────────────────────────┼────────────────────────┼───────────────┤
│ laynorm_1 (LayerNormalization)  │ (None, 37, 60)         │           120 │
├─────────────────────────────────┼────────────────────────┼───────────────┤
│ act_1 (Activation)              │ (None, 37, 60)         │             0 │
├─────────────────────────────────┼────────────────────────┼───────────────┤
│ drop_1 (Dropout)                │ (None, 37, 60)         │             0 │
├─────────────────────────────────┼────────────────────────┼───────────────┤
│ conv1d_2 (Conv1D)               │ (None, 33, 60)         │        18,000 │
├─────────────────────────────────┼────────────────────────┼───────────────┤
│ maxpool_2 (MaxPooling1D)        │ (None, 11, 60)         │             0 │
├─────────────────────────────────┼────────────────────────┼───────────────┤
│ laynorm_2 (LayerNormalization)  │ (None, 11, 60)         │           120 │
├─────────────────────────────────┼────────────────────────┼───────────────┤
│ act_2 (Activation)              │ (None, 11, 60)         │             0 │
├─────────────────────────────────┼────────────────────────┼───────────────┤
│ drop_2 (Dropout)                │ (None, 11, 60)         │             0 │
├─────────────────────────────────┼────────────────────────┼───────────────┤
│ flatten (Flatten)               │ (None, 660)            │             0 │
├─────────────────────────────────┼────────────────────────┼───────────────┤
│ dense (Dense)                   │ (None, 256)            │       169,216 │
├─────────────────────────────────┼────────────────────────┼───────────────┤
│ activation (Activation)         │ (None, 256)            │             0 │
├─────────────────────────────────┼────────────────────────┼───────────────┤
│ dense_1 (Dense)                 │ (None, 128)            │        32,896 │
├─────────────────────────────────┼────────────────────────┼───────────────┤
│ activation_1 (Activation)       │ (None, 128)            │             0 │
├─────────────────────────────────┼────────────────────────┼───────────────┤
│ dense_2 (Dense)                 │ (None, 50)             │         6,450 │
└─────────────────────────────────┴────────────────────────┴───────────────┘
 Total params: 241,365 (942.83 KB)
 Trainable params: 241,365 (942.83 KB)
 Non-trainable params: 0 (0.00 B)
epoch: 1 loss: 12.269
[Epoch 1] sincconv | low: 5.87±2.90 Hz | high: 7.12±2.90 Hz | bw: 1.25±0.01 Hz
epoch: 2 loss: 11.852
epoch: 3 loss: 11.395
epoch: 4 loss: 11.317
epoch: 5 loss: 11.036
epoch: 6 loss: 10.769
epoch: 7 loss: 10.520
…
       [  0,   3,  11, 128,   6,   0],
       [  0,   7,  16,  19,  68,   2],
       [  0,   6,   0,   1,   2, 124]]), 'F1 Macro': 0.8219756801517116, 'F1 Micro': 0.8498942917547568, 'F1 Weighted': 0.8503769642201469, 'Precision': 0.823614231038114, 'Recall': 0.8308456826522009, 'Kappa': 0.8132065082032358}
Model: "sincnet_model_simclr_layer_21"
┏━━━━━━━━━━━━━━━━━━━━━━━━━━━━━━━━━┳━━━━━━━━━━━━━━━━━━━━━━━━┳━━━━━━━━━━━━━━━┓
┃ Layer (type)                    ┃ Output Shape           ┃       Param # ┃
┡━━━━━━━━━━━━━━━━━━━━━━━━━━━━━━━━━╇━━━━━━━━━━━━━━━━━━━━━━━━╇━━━━━━━━━━━━━━━┩
│ input (InputLayer)              │ (None, 400, 3)         │             0 │
├─────────────────────────────────┼────────────────────────┼───────────────┤
│ ln_inp_flatten (Reshape)        │ (None, 1200)           │             0 │
├─────────────────────────────────┼────────────────────────┼───────────────┤
│ ln_inp (LayerNorm)              │ (None, 1200)           │         2,400 │
├─────────────────────────────────┼────────────────────────┼───────────────┤
│ ln_inp_restore (Reshape)        │ (None, 400, 3)         │             0 │
├─────────────────────────────────┼────────────────────────┼───────────────┤
│ channel_mix (Conv1D)            │ (None, 400, 1)         │             3 │
├─────────────────────────────────┼────────────────────────┼───────────────┤
│ sincconv (SincConv_fast)        │ (None, 350, 40)        │            80 │
├─────────────────────────────────┼────────────────────────┼───────────────┤
│ abs_sinc (AbsoluteValue)        │ (None, 350, 40)        │             0 │
├─────────────────────────────────┼────────────────────────┼───────────────┤
│ maxpool_0 (MaxPooling1D)        │ (None, 116, 40)        │             0 │
├─────────────────────────────────┼────────────────────────┼───────────────┤
│ laynorm_0 (LayerNormalization)  │ (None, 116, 40)        │            80 │
├─────────────────────────────────┼────────────────────────┼───────────────┤
│ act_0 (Activation)              │ (None, 116, 40)        │             0 │
├─────────────────────────────────┼────────────────────────┼───────────────┤
│ drop_0 (Dropout)                │ (None, 116, 40)        │             0 │
├─────────────────────────────────┼────────────────────────┼───────────────┤
│ conv1d_1 (Conv1D)               │ (None, 112, 60)        │        12,000 │
├─────────────────────────────────┼────────────────────────┼───────────────┤
│ maxpool_1 (MaxPooling1D)        │ (None, 37, 60)         │             0 │
├─────────────────────────────────┼────────────────────────┼───────────────┤
│ laynorm_1 (LayerNormalization)  │ (None, 37, 60)         │           120 │
├─────────────────────────────────┼────────────────────────┼───────────────┤
│ act_1 (Activation)              │ (None, 37, 60)         │             0 │
├─────────────────────────────────┼────────────────────────┼───────────────┤
│ drop_1 (Dropout)                │ (None, 37, 60)         │             0 │
├─────────────────────────────────┼────────────────────────┼───────────────┤
│ conv1d_2 (Conv1D)               │ (None, 33, 60)         │        18,000 │
├─────────────────────────────────┼────────────────────────┼───────────────┤
│ maxpool_2 (MaxPooling1D)        │ (None, 11, 60)         │             0 │
├─────────────────────────────────┼────────────────────────┼───────────────┤
│ laynorm_2 (LayerNormalization)  │ (None, 11, 60)         │           120 │
├─────────────────────────────────┼────────────────────────┼───────────────┤
│ act_2 (Activation)              │ (None, 11, 60)         │             0 │
├─────────────────────────────────┼────────────────────────┼───────────────┤
│ drop_2 (Dropout)                │ (None, 11, 60)         │             0 │
├─────────────────────────────────┼────────────────────────┼───────────────┤
│ flatten (Flatten)               │ (None, 660)            │             0 │
└─────────────────────────────────┴────────────────────────┴───────────────┘
 Total params: 32,803 (128.14 KB)
 Trainable params: 18,120 (70.78 KB)
 Non-trainable params: 14,683 (57.36 KB)
[1m1/3[0m [32m━━━━━━[0m[37m━━━━━━━━━━━━━━[0m [1m0s[0m 157ms/step[1m3/3[0m [32m━━━━━━━━━━━━━━━━━━━━[0m[37m[0m [1m0s[0m 83ms/step [1m3/3[0m [32m━━━━━━━━━━━━━━━━━━━━[0m[37m[0m [1m0s[0m 89ms/step
…
