…
(array(['dws', 'jog', 'sit', 'std', 'ups', 'wlk'], dtype='<U3'), array([ 449,  480, 1282, 1146,  546, 1308]))
(array([1, 2, 3, 4]), array([1308,  546,  449,  480]))
-----------------
Training data shape: (2226, 400, 3)
Validation data shape: (557, 400, 3)
Testing data shape: (724, 400, 3)
0 <function rotation_transform_vectorized at 0x14f709e563e0>
Model: "sincnet_base_model_simclr"
┏━━━━━━━━━━━━━━━━━━━━━━━━━━━━━━━━━┳━━━━━━━━━━━━━━━━━━━━━━━━┳━━━━━━━━━━━━━━━┓
┃ Layer (type)                    ┃ Output Shape           ┃       Param # ┃
┡━━━━━━━━━━━━━━━━━━━━━━━━━━━━━━━━━╇━━━━━━━━━━━━━━━━━━━━━━━━╇━━━━━━━━━━━━━━━┩
│ input (InputLayer)              │ (None, 400, 3)         │             0 │
├─────────────────────────────────┼────────────────────────┼───────────────┤
│ sincconv (SincConv1D)           │ (None, 400, 48)        │            96 │
├─────────────────────────────────┼────────────────────────┼───────────────┤
│ batch_normalization             │ (None, 400, 48)        │           192 │
│ (BatchNormalization)            │                        │               │
├─────────────────────────────────┼────────────────────────┼───────────────┤
│ leaky_re_lu (LeakyReLU)         │ (None, 400, 48)        │             0 │
├─────────────────────────────────┼────────────────────────┼───────────────┤
│ conv1d (Conv1D)                 │ (None, 385, 64)        │        49,216 │
├─────────────────────────────────┼────────────────────────┼───────────────┤
│ dropout (Dropout)               │ (None, 385, 64)        │             0 │
├─────────────────────────────────┼────────────────────────┼───────────────┤
│ conv1d_1 (Conv1D)               │ (None, 378, 96)        │        49,248 │
├─────────────────────────────────┼────────────────────────┼───────────────┤
│ dropout_1 (Dropout)             │ (None, 378, 96)        │             0 │
├─────────────────────────────────┼────────────────────────┼───────────────┤
│ global_max_pooling1d            │ (None, 96)             │             0 │
│ (GlobalMaxPooling1D)            │                        │               │
├─────────────────────────────────┼────────────────────────┼───────────────┤
│ dense (Dense)                   │ (None, 256)            │        24,832 │
├─────────────────────────────────┼────────────────────────┼───────────────┤
│ activation (Activation)         │ (None, 256)            │             0 │
├─────────────────────────────────┼────────────────────────┼───────────────┤
│ dense_1 (Dense)                 │ (None, 128)            │        32,896 │
├─────────────────────────────────┼────────────────────────┼───────────────┤
│ activation_1 (Activation)       │ (None, 128)            │             0 │
├─────────────────────────────────┼────────────────────────┼───────────────┤
│ dense_2 (Dense)                 │ (None, 50)             │         6,450 │
└─────────────────────────────────┴────────────────────────┴───────────────┘
 Total params: 162,930 (636.45 KB)
 Trainable params: 162,834 (636.07 KB)
 Non-trainable params: 96 (384.00 B)

Layer indices for model 'sincnet_base_model_simclr':
   idx  type                          name                                      output shape
  -----------------------------------------------------------------------------------------------
…
{'Confusion Matrix': array([[294,  35,   2,   0],
       [  1, 141,   6,   0],
       [ 14,   1,  92,   5],
       [  0,  14,  16, 103]]), 'F1 Macro': 0.8530994337929151, 'F1 Micro': 0.8701657458563536, 'F1 Weighted': 0.8719501470483049, 'Precision': 0.8591208394867839, 'Recall': 0.8591962217538621, 'Kappa': 0.8141932383768391}
Model: "sincnet_base_model_simclr_layer_8"
┏━━━━━━━━━━━━━━━━━━━━━━━━━━━━━━━━━┳━━━━━━━━━━━━━━━━━━━━━━━━┳━━━━━━━━━━━━━━━┓
┃ Layer (type)                    ┃ Output Shape           ┃       Param # ┃
┡━━━━━━━━━━━━━━━━━━━━━━━━━━━━━━━━━╇━━━━━━━━━━━━━━━━━━━━━━━━╇━━━━━━━━━━━━━━━┩
│ input (InputLayer)              │ (None, 400, 3)         │             0 │
├─────────────────────────────────┼────────────────────────┼───────────────┤
│ sincconv (SincConv1D)           │ (None, 400, 48)        │            96 │
├─────────────────────────────────┼────────────────────────┼───────────────┤
│ batch_normalization             │ (None, 400, 48)        │           192 │
│ (BatchNormalization)            │                        │               │
├─────────────────────────────────┼────────────────────────┼───────────────┤
│ leaky_re_lu (LeakyReLU)         │ (None, 400, 48)        │             0 │
├─────────────────────────────────┼────────────────────────┼───────────────┤
│ conv1d (Conv1D)                 │ (None, 385, 64)        │        49,216 │
├─────────────────────────────────┼────────────────────────┼───────────────┤
│ dropout (Dropout)               │ (None, 385, 64)        │             0 │
├─────────────────────────────────┼────────────────────────┼───────────────┤
│ conv1d_1 (Conv1D)               │ (None, 378, 96)        │        49,248 │
├─────────────────────────────────┼────────────────────────┼───────────────┤
│ dropout_1 (Dropout)             │ (None, 378, 96)        │             0 │
├─────────────────────────────────┼────────────────────────┼───────────────┤
│ global_max_pooling1d            │ (None, 96)             │             0 │
│ (GlobalMaxPooling1D)            │                        │               │
└─────────────────────────────────┴────────────────────────┴───────────────┘
 Total params: 98,752 (385.75 KB)
 Trainable params: 49,248 (192.38 KB)
 Non-trainable params: 49,504 (193.38 KB)
[1m1/2[0m [32m━━━━━━━━━━[0m[37m━━━━━━━━━━[0m [1m0s[0m 297ms/step[1m2/2[0m [32m━━━━━━━━━━━━━━━━━━━━[0m[37m[0m [1m0s[0m 189ms/step[1m2/2[0m [32m━━━━━━━━━━━━━━━━━━━━[0m[37m[0m [1m0s[0m 200ms/step
…
