…
(array([1, 2, 3, 4, 5, 6]), array([1282, 1146, 1308,  546,  449,  480]))
-----------------
Training data shape: (4168, 400, 3)
Validation data shape: (1043, 400, 3)
Testing data shape: (1419, 400, 3)
<function channel_shuffle_transform_vectorized at 0x14c4dbed6e80>
<function time_segment_permutation_transform_improved at 0x14c4dbed6f20>
Model: "sincnet_model_simclr"
┏━━━━━━━━━━━━━━━━━━━━━━━━━━━━━━━━━┳━━━━━━━━━━━━━━━━━━━━━━━━┳━━━━━━━━━━━━━━━┓
┃ Layer (type)                    ┃ Output Shape           ┃       Param # ┃
┡━━━━━━━━━━━━━━━━━━━━━━━━━━━━━━━━━╇━━━━━━━━━━━━━━━━━━━━━━━━╇━━━━━━━━━━━━━━━┩
│ input (InputLayer)              │ (None, 400, 3)         │             0 │
├─────────────────────────────────┼────────────────────────┼───────────────┤
│ ln_inp_flatten (Reshape)        │ (None, 1200)           │             0 │
├─────────────────────────────────┼────────────────────────┼───────────────┤
│ ln_inp (LayerNorm)              │ (None, 1200)           │         2,400 │
├─────────────────────────────────┼────────────────────────┼───────────────┤
│ ln_inp_restore (Reshape)        │ (None, 400, 3)         │             0 │
├─────────────────────────────────┼────────────────────────┼───────────────┤
│ channel_mix (Conv1D)            │ (None, 400, 1)         │             3 │
├─────────────────────────────────┼────────────────────────┼───────────────┤
│ sincconv (SincConv_fast)        │ (None, 350, 80)        │           160 │
├─────────────────────────────────┼────────────────────────┼───────────────┤
│ abs_sinc (AbsoluteValue)        │ (None, 350, 80)        │             0 │
├─────────────────────────────────┼────────────────────────┼───────────────┤
│ maxpool_0 (MaxPooling1D)        │ (None, 116, 80)        │             0 │
├─────────────────────────────────┼────────────────────────┼───────────────┤
│ laynorm_0 (LayerNormalization)  │ (None, 116, 80)        │           160 │
├─────────────────────────────────┼────────────────────────┼───────────────┤
│ act_0 (Activation)              │ (None, 116, 80)        │             0 │
├─────────────────────────────────┼────────────────────────┼───────────────┤
│ drop_0 (Dropout)                │ (None, 116, 80)        │             0 │
├─────────────────────────────────┼────────────────────────┼───────────────┤
│ conv1d_1 (Conv1D)               │ (None, 112, 60)        │        24,000 │
├─────────────────────────────────┼────────────────────────┼───────────────┤
│ maxpool_1 (MaxPooling1D)        │ (None, 37, 60)         │             0 │
├─────────────────────────────────┼────────────────────────┼───────────────┤
│ laynorm_1 (LayerNormalization)  │ (None, 37, 60)         │           120 │
├─────────────────────────────────┼────────────────────────┼───────────────┤
│ act_1 (Activation)              │ (None, 37, 60)         │             0 │
├─────────────────────────────────┼────────────────────────┼───────────────┤
│ drop_1 (Dropout)                │ (None, 37, 60)         │             0 │
├─────────────────────────────────┼────────────────────────┼───────────────┤
│ conv1d_2 (Conv1D)               │ (None, 33, 60)         │        18,000 │
├─────────────────────────────────┼────────────────────────┼───────────────┤
│ maxpool_2 (MaxPooling1D)        │ (None, 11, 60)         │             0 │
├─────────────────────────────────┼────────────────────────┼───────────────┤
│ laynorm_2 (LayerNormalization)  │ (None, 11, 60)         │           120 │
├─────────────────────────────────┼────────────────────────┼───────────────┤
│ act_2 (Activation)              │ (None, 11, 60)         │             0 │
├─────────────────────────────────┼────────────────────────┼───────────────┤
│ drop_2 (Dropout)                │ (None, 11, 60)         │             0 │
├─────────────────────────────────┼────────────────────────┼───────────────┤
│ flatten (Flatten)               │ (None, 660)            │             0 │
├─────────────────────────────────┼────────────────────────┼───────────────┤
│ dense (Dense)                   │ (None, 256)            │       169,216 │
├─────────────────────────────────┼────────────────────────┼───────────────┤
│ activation (Activation)         │ (None, 256)            │             0 │
├─────────────────────────────────┼────────────────────────┼───────────────┤
│ dense_1 (Dense)                 │ (None, 128)            │        32,896 │
├─────────────────────────────────┼────────────────────────┼───────────────┤
│ activation_1 (Activation)       │ (None, 128)            │             0 │
├─────────────────────────────────┼────────────────────────┼───────────────┤
│ dense_2 (Dense)                 │ (None, 50)             │         6,450 │
└─────────────────────────────────┴────────────────────────┴───────────────┘
 Total params: 253,525 (990.33 KB)
 Trainable params: 253,525 (990.33 KB)
 Non-trainable params: 0 (0.00 B)
epoch: 1 loss: 12.100
epoch: 2 loss: 11.598
epoch: 3 loss: 11.279
epoch: 4 loss: 11.103
epoch: 5 loss: 10.951
epoch: 6 loss: 10.672
epoch: 7 loss: 10.739
epoch: 8 loss: 10.409
epoch: 9 loss: 10.226
epoch: 10 loss: 10.016
…
       [  0,  19,  11, 109,   9,   0],
       [  0,   9,   6,  16,  58,  23],
       [  0,   0,   3,   0,  10, 120]]), 'F1 Macro': 0.7934804888651555, 'F1 Micro': 0.8421423537702607, 'F1 Weighted': 0.8429217684007407, 'Precision': 0.801532434781913, 'Recall': 0.8002306926144863, 'Kappa': 0.80346746469468}
Model: "sincnet_model_simclr_layer_22"
┏━━━━━━━━━━━━━━━━━━━━━━━━━━━━━━━━━┳━━━━━━━━━━━━━━━━━━━━━━━━┳━━━━━━━━━━━━━━━┓
┃ Layer (type)                    ┃ Output Shape           ┃       Param # ┃
┡━━━━━━━━━━━━━━━━━━━━━━━━━━━━━━━━━╇━━━━━━━━━━━━━━━━━━━━━━━━╇━━━━━━━━━━━━━━━┩
│ input (InputLayer)              │ (None, 400, 3)         │             0 │
├─────────────────────────────────┼────────────────────────┼───────────────┤
│ ln_inp_flatten (Reshape)        │ (None, 1200)           │             0 │
├─────────────────────────────────┼────────────────────────┼───────────────┤
│ ln_inp (LayerNorm)              │ (None, 1200)           │         2,400 │
├─────────────────────────────────┼────────────────────────┼───────────────┤
│ ln_inp_restore (Reshape)        │ (None, 400, 3)         │             0 │
├─────────────────────────────────┼────────────────────────┼───────────────┤
│ channel_mix (Conv1D)            │ (None, 400, 1)         │             3 │
├─────────────────────────────────┼────────────────────────┼───────────────┤
│ sincconv (SincConv_fast)        │ (None, 350, 80)        │           160 │
├─────────────────────────────────┼────────────────────────┼───────────────┤
│ abs_sinc (AbsoluteValue)        │ (None, 350, 80)        │             0 │
├─────────────────────────────────┼────────────────────────┼───────────────┤
│ maxpool_0 (MaxPooling1D)        │ (None, 116, 80)        │             0 │
├─────────────────────────────────┼────────────────────────┼───────────────┤
│ laynorm_0 (LayerNormalization)  │ (None, 116, 80)        │           160 │
├─────────────────────────────────┼────────────────────────┼───────────────┤
│ act_0 (Activation)              │ (None, 116, 80)        │             0 │
├─────────────────────────────────┼────────────────────────┼───────────────┤
│ drop_0 (Dropout)                │ (None, 116, 80)        │             0 │
├─────────────────────────────────┼────────────────────────┼───────────────┤
│ conv1d_1 (Conv1D)               │ (None, 112, 60)        │        24,000 │
├─────────────────────────────────┼────────────────────────┼───────────────┤
│ maxpool_1 (MaxPooling1D)        │ (None, 37, 60)         │             0 │
├─────────────────────────────────┼────────────────────────┼───────────────┤
│ laynorm_1 (LayerNormalization)  │ (None, 37, 60)         │           120 │
├─────────────────────────────────┼────────────────────────┼───────────────┤
│ act_1 (Activation)              │ (None, 37, 60)         │             0 │
├─────────────────────────────────┼────────────────────────┼───────────────┤
│ drop_1 (Dropout)                │ (None, 37, 60)         │             0 │
├─────────────────────────────────┼────────────────────────┼───────────────┤
│ conv1d_2 (Conv1D)               │ (None, 33, 60)         │        18,000 │
├─────────────────────────────────┼────────────────────────┼───────────────┤
│ maxpool_2 (MaxPooling1D)        │ (None, 11, 60)         │             0 │
├─────────────────────────────────┼────────────────────────┼───────────────┤
│ laynorm_2 (LayerNormalization)  │ (None, 11, 60)         │           120 │
├─────────────────────────────────┼────────────────────────┼───────────────┤
│ act_2 (Activation)              │ (None, 11, 60)         │             0 │
├─────────────────────────────────┼────────────────────────┼───────────────┤
│ drop_2 (Dropout)                │ (None, 11, 60)         │             0 │
├─────────────────────────────────┼────────────────────────┼───────────────┤
│ flatten (Flatten)               │ (None, 660)            │             0 │
├─────────────────────────────────┼────────────────────────┼───────────────┤
│ dense (Dense)                   │ (None, 256)            │       169,216 │
└─────────────────────────────────┴────────────────────────┴───────────────┘
 Total params: 214,179 (836.64 KB)
 Trainable params: 211,616 (826.62 KB)
 Non-trainable params: 2,563 (10.01 KB)
[1m1/3[0m [32m━━━━━━[0m[37m━━━━━━━━━━━━━━[0m [1m0s[0m 176ms/step[1m3/3[0m [32m━━━━━━━━━━━━━━━━━━━━[0m[37m[0m [1m0s[0m 96ms/step [1m3/3[0m [32m━━━━━━━━━━━━━━━━━━━━[0m[37m[0m [1m0s[0m 102ms/step
…
