…
(array(['dws', 'jog', 'sit', 'std', 'ups', 'wlk'], dtype='<U3'), array([ 449,  480, 1282, 1146,  546, 1308]))
(array([1, 2, 3, 4, 5, 6]), array([1282, 1146, 1308,  546,  449,  480]))
-----------------
Training data shape: (4168, 400, 3)
Validation data shape: (1043, 400, 3)
Testing data shape: (1419, 400, 3)
0 <function rotation_transform_vectorized at 0x14c4fd886e80>
Model: "sincnet_model_simclr"
┏━━━━━━━━━━━━━━━━━━━━━┳━━━━━━━━━━━━━━━━━━━┳━━━━━━━━━━━━┳━━━━━━━━━━━━━━━━━━━┓
┃ Layer (type)        ┃ Output Shape      ┃    Param # ┃ Connected to      ┃
┡━━━━━━━━━━━━━━━━━━━━━╇━━━━━━━━━━━━━━━━━━━╇━━━━━━━━━━━━╇━━━━━━━━━━━━━━━━━━━┩
│ input (InputLayer)  │ (None, 400, 3)    │          0 │ -                 │
├─────────────────────┼───────────────────┼────────────┼───────────────────┤
│ ln_inp_flatten      │ (None, 1200)      │          0 │ input[0][0]       │
│ (Reshape)           │                   │            │                   │
├─────────────────────┼───────────────────┼────────────┼───────────────────┤
│ ln_inp (LayerNorm)  │ (None, 1200)      │      2,400 │ ln_inp_flatten[0… │
├─────────────────────┼───────────────────┼────────────┼───────────────────┤
│ ln_inp_restore      │ (None, 400, 3)    │          0 │ ln_inp[0][0]      │
│ (Reshape)           │                   │            │                   │
├─────────────────────┼───────────────────┼────────────┼───────────────────┤
│ split_ch0           │ (None, 400, 1)    │          0 │ ln_inp_restore[0… │
│ (ChannelSlice)      │                   │            │                   │
├─────────────────────┼───────────────────┼────────────┼───────────────────┤
│ split_ch1           │ (None, 400, 1)    │          0 │ ln_inp_restore[0… │
│ (ChannelSlice)      │                   │            │                   │
├─────────────────────┼───────────────────┼────────────┼───────────────────┤
│ split_ch2           │ (None, 400, 1)    │          0 │ ln_inp_restore[0… │
│ (ChannelSlice)      │                   │            │                   │
├─────────────────────┼───────────────────┼────────────┼───────────────────┤
│ sincconv_ch0        │ (None, 370, 31)   │         62 │ split_ch0[0][0]   │
│ (SincConv_fast)     │                   │            │                   │
├─────────────────────┼───────────────────┼────────────┼───────────────────┤
│ sincconv_ch1        │ (None, 370, 31)   │         62 │ split_ch1[0][0]   │
│ (SincConv_fast)     │                   │            │                   │
├─────────────────────┼───────────────────┼────────────┼───────────────────┤
│ sincconv_ch2        │ (None, 370, 31)   │         62 │ split_ch2[0][0]   │
│ (SincConv_fast)     │                   │            │                   │
├─────────────────────┼───────────────────┼────────────┼───────────────────┤
│ abs_ch0             │ (None, 370, 31)   │          0 │ sincconv_ch0[0][… │
│ (AbsoluteValue)     │                   │            │                   │
├─────────────────────┼───────────────────┼────────────┼───────────────────┤
│ abs_ch1             │ (None, 370, 31)   │          0 │ sincconv_ch1[0][… │
│ (AbsoluteValue)     │                   │            │                   │
├─────────────────────┼───────────────────┼────────────┼───────────────────┤
│ abs_ch2             │ (None, 370, 31)   │          0 │ sincconv_ch2[0][… │
│ (AbsoluteValue)     │                   │            │                   │
├─────────────────────┼───────────────────┼────────────┼───────────────────┤
│ sinc_concat         │ (None, 370, 93)   │          0 │ abs_ch0[0][0],    │
│ (Concatenate)       │                   │            │ abs_ch1[0][0],    │
│                     │                   │            │ abs_ch2[0][0]     │
├─────────────────────┼───────────────────┼────────────┼───────────────────┤
│ maxpool_0           │ (None, 123, 93)   │          0 │ sinc_concat[0][0] │
│ (MaxPooling1D)      │                   │            │                   │
├─────────────────────┼───────────────────┼────────────┼───────────────────┤
│ laynorm_0           │ (None, 123, 93)   │        186 │ maxpool_0[0][0]   │
│ (LayerNormalizatio… │                   │            │                   │
├─────────────────────┼───────────────────┼────────────┼───────────────────┤
│ act_0 (Activation)  │ (None, 123, 93)   │          0 │ laynorm_0[0][0]   │
├─────────────────────┼───────────────────┼────────────┼───────────────────┤
│ drop_0 (Dropout)    │ (None, 123, 93)   │          0 │ act_0[0][0]       │
├─────────────────────┼───────────────────┼────────────┼───────────────────┤
│ conv1d_1 (Conv1D)   │ (None, 119, 60)   │     27,900 │ drop_0[0][0]      │
├─────────────────────┼───────────────────┼────────────┼───────────────────┤
│ maxpool_1           │ (None, 39, 60)    │          0 │ conv1d_1[0][0]    │
│ (MaxPooling1D)      │                   │            │                   │
├─────────────────────┼───────────────────┼────────────┼───────────────────┤
│ laynorm_1           │ (None, 39, 60)    │        120 │ maxpool_1[0][0]   │
│ (LayerNormalizatio… │                   │            │                   │
├─────────────────────┼───────────────────┼────────────┼───────────────────┤
│ act_1 (Activation)  │ (None, 39, 60)    │          0 │ laynorm_1[0][0]   │
├─────────────────────┼───────────────────┼────────────┼───────────────────┤
│ drop_1 (Dropout)    │ (None, 39, 60)    │          0 │ act_1[0][0]       │
├─────────────────────┼───────────────────┼────────────┼───────────────────┤
│ conv1d_2 (Conv1D)   │ (None, 35, 60)    │     18,000 │ drop_1[0][0]      │
├─────────────────────┼───────────────────┼────────────┼───────────────────┤
│ maxpool_2           │ (None, 11, 60)    │          0 │ conv1d_2[0][0]    │
│ (MaxPooling1D)      │                   │            │                   │
├─────────────────────┼───────────────────┼────────────┼───────────────────┤
│ laynorm_2           │ (None, 11, 60)    │        120 │ maxpool_2[0][0]   │
│ (LayerNormalizatio… │                   │            │                   │
├─────────────────────┼───────────────────┼────────────┼───────────────────┤
│ act_2 (Activation)  │ (None, 11, 60)    │          0 │ laynorm_2[0][0]   │
├─────────────────────┼───────────────────┼────────────┼───────────────────┤
│ drop_2 (Dropout)    │ (None, 11, 60)    │          0 │ act_2[0][0]       │
├─────────────────────┼───────────────────┼────────────┼───────────────────┤
│ flatten (Flatten)   │ (None, 660)       │          0 │ drop_2[0][0]      │
├─────────────────────┼───────────────────┼────────────┼───────────────────┤
│ dense (Dense)       │ (None, 256)       │    169,216 │ flatten[0][0]     │
├─────────────────────┼───────────────────┼────────────┼───────────────────┤
│ activation          │ (None, 256)       │          0 │ dense[0][0]       │
│ (Activation)        │                   │            │                   │
├─────────────────────┼───────────────────┼────────────┼───────────────────┤
│ dense_1 (Dense)     │ (None, 128)       │     32,896 │ activation[0][0]  │
├─────────────────────┼───────────────────┼────────────┼───────────────────┤
│ activation_1        │ (None, 128)       │          0 │ dense_1[0][0]     │
│ (Activation)        │                   │            │                   │
├─────────────────────┼───────────────────┼────────────┼───────────────────┤
│ dense_2 (Dense)     │ (None, 50)        │      6,450 │ activation_1[0][… │
└─────────────────────┴───────────────────┴────────────┴───────────────────┘
 Total params: 257,474 (1005.76 KB)
 Trainable params: 257,474 (1005.76 KB)
 Non-trainable params: 0 (0.00 B)
epoch: 1 loss: 11.928
epoch: 2 loss: 10.079
epoch: 3 loss: 9.454
epoch: 4 loss: 8.107
epoch: 5 loss: 7.232
epoch: 6 loss: 6.974
epoch: 7 loss: 6.236
epoch: 8 loss: 5.450
epoch: 9 loss: 5.419
…
       [  1,  11,  15,  95,  14,  12],
       [  0,   1,  23,  23,  63,   2],
       [  0,   6,   0,   6,  26,  95]]), 'F1 Macro': 0.7509192964527603, 'F1 Micro': 0.7892882311486963, 'F1 Weighted': 0.7864502846928977, 'Precision': 0.7680628848213605, 'Recall': 0.7404885771292973, 'Kappa': 0.7347850900414625}
Model: "sincnet_model_simclr_layer_28"
┏━━━━━━━━━━━━━━━━━━━━━┳━━━━━━━━━━━━━━━━━━━┳━━━━━━━━━━━━┳━━━━━━━━━━━━━━━━━━━┓
┃ Layer (type)        ┃ Output Shape      ┃    Param # ┃ Connected to      ┃
┡━━━━━━━━━━━━━━━━━━━━━╇━━━━━━━━━━━━━━━━━━━╇━━━━━━━━━━━━╇━━━━━━━━━━━━━━━━━━━┩
│ input (InputLayer)  │ (None, 400, 3)    │          0 │ -                 │
├─────────────────────┼───────────────────┼────────────┼───────────────────┤
│ ln_inp_flatten      │ (None, 1200)      │          0 │ input[0][0]       │
│ (Reshape)           │                   │            │                   │
├─────────────────────┼───────────────────┼────────────┼───────────────────┤
│ ln_inp (LayerNorm)  │ (None, 1200)      │      2,400 │ ln_inp_flatten[0… │
├─────────────────────┼───────────────────┼────────────┼───────────────────┤
│ ln_inp_restore      │ (None, 400, 3)    │          0 │ ln_inp[0][0]      │
│ (Reshape)           │                   │            │                   │
├─────────────────────┼───────────────────┼────────────┼───────────────────┤
│ split_ch0           │ (None, 400, 1)    │          0 │ ln_inp_restore[0… │
│ (ChannelSlice)      │                   │            │                   │
├─────────────────────┼───────────────────┼────────────┼───────────────────┤
│ split_ch1           │ (None, 400, 1)    │          0 │ ln_inp_restore[0… │
│ (ChannelSlice)      │                   │            │                   │
├─────────────────────┼───────────────────┼────────────┼───────────────────┤
│ split_ch2           │ (None, 400, 1)    │          0 │ ln_inp_restore[0… │
│ (ChannelSlice)      │                   │            │                   │
├─────────────────────┼───────────────────┼────────────┼───────────────────┤
│ sincconv_ch0        │ (None, 370, 31)   │         62 │ split_ch0[0][0]   │
│ (SincConv_fast)     │                   │            │                   │
├─────────────────────┼───────────────────┼────────────┼───────────────────┤
│ sincconv_ch1        │ (None, 370, 31)   │         62 │ split_ch1[0][0]   │
│ (SincConv_fast)     │                   │            │                   │
├─────────────────────┼───────────────────┼────────────┼───────────────────┤
│ sincconv_ch2        │ (None, 370, 31)   │         62 │ split_ch2[0][0]   │
│ (SincConv_fast)     │                   │            │                   │
├─────────────────────┼───────────────────┼────────────┼───────────────────┤
│ abs_ch0             │ (None, 370, 31)   │          0 │ sincconv_ch0[0][… │
│ (AbsoluteValue)     │                   │            │                   │
├─────────────────────┼───────────────────┼────────────┼───────────────────┤
│ abs_ch1             │ (None, 370, 31)   │          0 │ sincconv_ch1[0][… │
│ (AbsoluteValue)     │                   │            │                   │
├─────────────────────┼───────────────────┼────────────┼───────────────────┤
│ abs_ch2             │ (None, 370, 31)   │          0 │ sincconv_ch2[0][… │
│ (AbsoluteValue)     │                   │            │                   │
├─────────────────────┼───────────────────┼────────────┼───────────────────┤
│ sinc_concat         │ (None, 370, 93)   │          0 │ abs_ch0[0][0],    │
│ (Concatenate)       │                   │            │ abs_ch1[0][0],    │
│                     │                   │            │ abs_ch2[0][0]     │
├─────────────────────┼───────────────────┼────────────┼───────────────────┤
│ maxpool_0           │ (None, 123, 93)   │          0 │ sinc_concat[0][0] │
│ (MaxPooling1D)      │                   │            │                   │
├─────────────────────┼───────────────────┼────────────┼───────────────────┤
│ laynorm_0           │ (None, 123, 93)   │        186 │ maxpool_0[0][0]   │
│ (LayerNormalizatio… │                   │            │                   │
├─────────────────────┼───────────────────┼────────────┼───────────────────┤
│ act_0 (Activation)  │ (None, 123, 93)   │          0 │ laynorm_0[0][0]   │
├─────────────────────┼───────────────────┼────────────┼───────────────────┤
│ drop_0 (Dropout)    │ (None, 123, 93)   │          0 │ act_0[0][0]       │
├─────────────────────┼───────────────────┼────────────┼───────────────────┤
│ conv1d_1 (Conv1D)   │ (None, 119, 60)   │     27,900 │ drop_0[0][0]      │
├─────────────────────┼───────────────────┼────────────┼───────────────────┤
│ maxpool_1           │ (None, 39, 60)    │          0 │ conv1d_1[0][0]    │
│ (MaxPooling1D)      │                   │            │                   │
├─────────────────────┼───────────────────┼────────────┼───────────────────┤
│ laynorm_1           │ (None, 39, 60)    │        120 │ maxpool_1[0][0]   │
│ (LayerNormalizatio… │                   │            │                   │
├─────────────────────┼───────────────────┼────────────┼───────────────────┤
│ act_1 (Activation)  │ (None, 39, 60)    │          0 │ laynorm_1[0][0]   │
├─────────────────────┼───────────────────┼────────────┼───────────────────┤
│ drop_1 (Dropout)    │ (None, 39, 60)    │          0 │ act_1[0][0]       │
├─────────────────────┼───────────────────┼────────────┼───────────────────┤
│ conv1d_2 (Conv1D)   │ (None, 35, 60)    │     18,000 │ drop_1[0][0]      │
├─────────────────────┼───────────────────┼────────────┼───────────────────┤
│ maxpool_2           │ (None, 11, 60)    │          0 │ conv1d_2[0][0]    │
│ (MaxPooling1D)      │                   │            │                   │
├─────────────────────┼───────────────────┼────────────┼───────────────────┤
│ laynorm_2           │ (None, 11, 60)    │        120 │ maxpool_2[0][0]   │
│ (LayerNormalizatio… │                   │            │                   │
├─────────────────────┼───────────────────┼────────────┼───────────────────┤
│ act_2 (Activation)  │ (None, 11, 60)    │          0 │ laynorm_2[0][0]   │
├─────────────────────┼───────────────────┼────────────┼───────────────────┤
│ drop_2 (Dropout)    │ (None, 11, 60)    │          0 │ act_2[0][0]       │
├─────────────────────┼───────────────────┼────────────┼───────────────────┤
│ flatten (Flatten)   │ (None, 660)       │          0 │ drop_2[0][0]      │
└─────────────────────┴───────────────────┴────────────┴───────────────────┘
 Total params: 48,912 (191.06 KB)
 Trainable params: 46,140 (180.23 KB)
 Non-trainable params: 2,772 (10.83 KB)
[1m1/3[0m [32m━━━━━━[0m[37m━━━━━━━━━━━━━━[0m [1m0s[0m 253ms/step[1m2/3[0m [32m━━━━━━━━━━━━━[0m[37m━━━━━━━[0m [1m0s[0m 56ms/step [1m3/3[0m [32m━━━━━━━━━━━━━━━━━━━━[0m[37m[0m [1m0s[0m 135ms/step[1m3/3[0m [32m━━━━━━━━━━━━━━━━━━━━[0m[37m[0m [1m1s[0m 141ms/step
…
