…
(array(['dws', 'jog', 'sit', 'std', 'ups', 'wlk'], dtype='<U3'), array([ 449,  480, 1282, 1146,  546, 1308]))
(array([1, 2, 3, 4, 5, 6]), array([1282, 1146, 1308,  546,  449,  480]))
-----------------
Training data shape: (4168, 400, 3)
Validation data shape: (1043, 400, 3)
Testing data shape: (1419, 400, 3)
0 <function rotation_transform_vectorized at 0x14aeac752f20>
Model: "sincnet_model_simclr"
┏━━━━━━━━━━━━━━━━━━━━━┳━━━━━━━━━━━━━━━━━━━┳━━━━━━━━━━━━┳━━━━━━━━━━━━━━━━━━━┓
┃ Layer (type)        ┃ Output Shape      ┃    Param # ┃ Connected to      ┃
┡━━━━━━━━━━━━━━━━━━━━━╇━━━━━━━━━━━━━━━━━━━╇━━━━━━━━━━━━╇━━━━━━━━━━━━━━━━━━━┩
│ input (InputLayer)  │ (None, 400, 3)    │          0 │ -                 │
├─────────────────────┼───────────────────┼────────────┼───────────────────┤
│ ln_inp_flatten      │ (None, 1200)      │          0 │ input[0][0]       │
│ (Reshape)           │                   │            │                   │
├─────────────────────┼───────────────────┼────────────┼───────────────────┤
│ ln_inp (LayerNorm)  │ (None, 1200)      │      2,400 │ ln_inp_flatten[0… │
├─────────────────────┼───────────────────┼────────────┼───────────────────┤
│ ln_inp_restore      │ (None, 400, 3)    │          0 │ ln_inp[0][0]      │
│ (Reshape)           │                   │            │                   │
├─────────────────────┼───────────────────┼────────────┼───────────────────┤
│ split_ch0           │ (None, 400, 1)    │          0 │ ln_inp_restore[0… │
│ (ChannelSlice)      │                   │            │                   │
├─────────────────────┼───────────────────┼────────────┼───────────────────┤
│ split_ch1           │ (None, 400, 1)    │          0 │ ln_inp_restore[0… │
│ (ChannelSlice)      │                   │            │                   │
├─────────────────────┼───────────────────┼────────────┼───────────────────┤
│ split_ch2           │ (None, 400, 1)    │          0 │ ln_inp_restore[0… │
│ (ChannelSlice)      │                   │            │                   │
├─────────────────────┼───────────────────┼────────────┼───────────────────┤
│ sincconv_ch0        │ (None, 370, 80)   │        160 │ split_ch0[0][0]   │
│ (SincConv_fast)     │                   │            │                   │
├─────────────────────┼───────────────────┼────────────┼───────────────────┤
│ sincconv_ch1        │ (None, 370, 80)   │        160 │ split_ch1[0][0]   │
│ (SincConv_fast)     │                   │            │                   │
├─────────────────────┼───────────────────┼────────────┼───────────────────┤
│ sincconv_ch2        │ (None, 370, 80)   │        160 │ split_ch2[0][0]   │
│ (SincConv_fast)     │                   │            │                   │
├─────────────────────┼───────────────────┼────────────┼───────────────────┤
│ abs_ch0             │ (None, 370, 80)   │          0 │ sincconv_ch0[0][… │
│ (AbsoluteValue)     │                   │            │                   │
├─────────────────────┼───────────────────┼────────────┼───────────────────┤
│ abs_ch1             │ (None, 370, 80)   │          0 │ sincconv_ch1[0][… │
│ (AbsoluteValue)     │                   │            │                   │
├─────────────────────┼───────────────────┼────────────┼───────────────────┤
│ abs_ch2             │ (None, 370, 80)   │          0 │ sincconv_ch2[0][… │
│ (AbsoluteValue)     │                   │            │                   │
├─────────────────────┼───────────────────┼────────────┼───────────────────┤
│ sinc_concat         │ (None, 370, 240)  │          0 │ abs_ch0[0][0],    │
│ (Concatenate)       │                   │            │ abs_ch1[0][0],    │
│                     │                   │            │ abs_ch2[0][0]     │
├─────────────────────┼───────────────────┼────────────┼───────────────────┤
│ maxpool_0           │ (None, 123, 240)  │          0 │ sinc_concat[0][0] │
│ (MaxPooling1D)      │                   │            │                   │
├─────────────────────┼───────────────────┼────────────┼───────────────────┤
│ laynorm_0           │ (None, 123, 240)  │        480 │ maxpool_0[0][0]   │
│ (LayerNormalizatio… │                   │            │                   │
├─────────────────────┼───────────────────┼────────────┼───────────────────┤
│ act_0 (Activation)  │ (None, 123, 240)  │          0 │ laynorm_0[0][0]   │
├─────────────────────┼───────────────────┼────────────┼───────────────────┤
│ drop_0 (Dropout)    │ (None, 123, 240)  │          0 │ act_0[0][0]       │
├─────────────────────┼───────────────────┼────────────┼───────────────────┤
│ conv1d_1 (Conv1D)   │ (None, 119, 60)   │     72,000 │ drop_0[0][0]      │
├─────────────────────┼───────────────────┼────────────┼───────────────────┤
│ maxpool_1           │ (None, 39, 60)    │          0 │ conv1d_1[0][0]    │
│ (MaxPooling1D)      │                   │            │                   │
├─────────────────────┼───────────────────┼────────────┼───────────────────┤
│ laynorm_1           │ (None, 39, 60)    │        120 │ maxpool_1[0][0]   │
│ (LayerNormalizatio… │                   │            │                   │
├─────────────────────┼───────────────────┼────────────┼───────────────────┤
│ act_1 (Activation)  │ (None, 39, 60)    │          0 │ laynorm_1[0][0]   │
├─────────────────────┼───────────────────┼────────────┼───────────────────┤
│ drop_1 (Dropout)    │ (None, 39, 60)    │          0 │ act_1[0][0]       │
├─────────────────────┼───────────────────┼────────────┼───────────────────┤
│ conv1d_2 (Conv1D)   │ (None, 35, 60)    │     18,000 │ drop_1[0][0]      │
├─────────────────────┼───────────────────┼────────────┼───────────────────┤
│ maxpool_2           │ (None, 11, 60)    │          0 │ conv1d_2[0][0]    │
│ (MaxPooling1D)      │                   │            │                   │
├─────────────────────┼───────────────────┼────────────┼───────────────────┤
│ laynorm_2           │ (None, 11, 60)    │        120 │ maxpool_2[0][0]   │
│ (LayerNormalizatio… │                   │            │                   │
├─────────────────────┼───────────────────┼────────────┼───────────────────┤
│ act_2 (Activation)  │ (None, 11, 60)    │          0 │ laynorm_2[0][0]   │
├─────────────────────┼───────────────────┼────────────┼───────────────────┤
│ drop_2 (Dropout)    │ (None, 11, 60)    │          0 │ act_2[0][0]       │
├─────────────────────┼───────────────────┼────────────┼───────────────────┤
│ flatten (Flatten)   │ (None, 660)       │          0 │ drop_2[0][0]      │
├─────────────────────┼───────────────────┼────────────┼───────────────────┤
│ dense (Dense)       │ (None, 256)       │    169,216 │ flatten[0][0]     │
├─────────────────────┼───────────────────┼────────────┼───────────────────┤
│ activation          │ (None, 256)       │          0 │ dense[0][0]       │
│ (Activation)        │                   │            │                   │
├─────────────────────┼───────────────────┼────────────┼───────────────────┤
│ dense_1 (Dense)     │ (None, 128)       │     32,896 │ activation[0][0]  │
├─────────────────────┼───────────────────┼────────────┼───────────────────┤
│ activation_1        │ (None, 128)       │          0 │ dense_1[0][0]     │
│ (Activation)        │                   │            │                   │
├─────────────────────┼───────────────────┼────────────┼───────────────────┤
│ dense_2 (Dense)     │ (None, 50)        │      6,450 │ activation_1[0][… │
└─────────────────────┴───────────────────┴────────────┴───────────────────┘
 Total params: 302,162 (1.15 MB)
 Trainable params: 302,162 (1.15 MB)
 Non-trainable params: 0 (0.00 B)
epoch: 1 loss: 11.694
epoch: 2 loss: 10.344
epoch: 3 loss: 8.899
epoch: 4 loss: 7.611
epoch: 5 loss: 6.378
epoch: 6 loss: 5.755
epoch: 7 loss: 5.505
epoch: 8 loss: 4.988
epoch: 9 loss: 4.877
epoch: 10 loss: 4.527
…
       [  7,  15,  12,  89,  22,   3],
       [  1,   6,  15,  30,  59,   1],
       [  0,   5,   0,   7,  23,  98]]), 'F1 Macro': 0.7623417270423327, 'F1 Micro': 0.8118393234672304, 'F1 Weighted': 0.8102252902188937, 'Precision': 0.7849282294041858, 'Recall': 0.7510379352461328, 'Kappa': 0.7633456280782408}
Model: "sincnet_model_simclr_layer_28"
┏━━━━━━━━━━━━━━━━━━━━━┳━━━━━━━━━━━━━━━━━━━┳━━━━━━━━━━━━┳━━━━━━━━━━━━━━━━━━━┓
┃ Layer (type)        ┃ Output Shape      ┃    Param # ┃ Connected to      ┃
┡━━━━━━━━━━━━━━━━━━━━━╇━━━━━━━━━━━━━━━━━━━╇━━━━━━━━━━━━╇━━━━━━━━━━━━━━━━━━━┩
│ input (InputLayer)  │ (None, 400, 3)    │          0 │ -                 │
├─────────────────────┼───────────────────┼────────────┼───────────────────┤
│ ln_inp_flatten      │ (None, 1200)      │          0 │ input[0][0]       │
│ (Reshape)           │                   │            │                   │
├─────────────────────┼───────────────────┼────────────┼───────────────────┤
│ ln_inp (LayerNorm)  │ (None, 1200)      │      2,400 │ ln_inp_flatten[0… │
├─────────────────────┼───────────────────┼────────────┼───────────────────┤
│ ln_inp_restore      │ (None, 400, 3)    │          0 │ ln_inp[0][0]      │
│ (Reshape)           │                   │            │                   │
├─────────────────────┼───────────────────┼────────────┼───────────────────┤
│ split_ch0           │ (None, 400, 1)    │          0 │ ln_inp_restore[0… │
│ (ChannelSlice)      │                   │            │                   │
├─────────────────────┼───────────────────┼────────────┼───────────────────┤
│ split_ch1           │ (None, 400, 1)    │          0 │ ln_inp_restore[0… │
│ (ChannelSlice)      │                   │            │                   │
├─────────────────────┼───────────────────┼────────────┼───────────────────┤
│ split_ch2           │ (None, 400, 1)    │          0 │ ln_inp_restore[0… │
│ (ChannelSlice)      │                   │            │                   │
├─────────────────────┼───────────────────┼────────────┼───────────────────┤
│ sincconv_ch0        │ (None, 370, 80)   │        160 │ split_ch0[0][0]   │
│ (SincConv_fast)     │                   │            │                   │
├─────────────────────┼───────────────────┼────────────┼───────────────────┤
│ sincconv_ch1        │ (None, 370, 80)   │        160 │ split_ch1[0][0]   │
│ (SincConv_fast)     │                   │            │                   │
├─────────────────────┼───────────────────┼────────────┼───────────────────┤
│ sincconv_ch2        │ (None, 370, 80)   │        160 │ split_ch2[0][0]   │
│ (SincConv_fast)     │                   │            │                   │
├─────────────────────┼───────────────────┼────────────┼───────────────────┤
│ abs_ch0             │ (None, 370, 80)   │          0 │ sincconv_ch0[0][… │
│ (AbsoluteValue)     │                   │            │                   │
├─────────────────────┼───────────────────┼────────────┼───────────────────┤
│ abs_ch1             │ (None, 370, 80)   │          0 │ sincconv_ch1[0][… │
│ (AbsoluteValue)     │                   │            │                   │
├─────────────────────┼───────────────────┼────────────┼───────────────────┤
│ abs_ch2             │ (None, 370, 80)   │          0 │ sincconv_ch2[0][… │
│ (AbsoluteValue)     │                   │            │                   │
├─────────────────────┼───────────────────┼────────────┼───────────────────┤
│ sinc_concat         │ (None, 370, 240)  │          0 │ abs_ch0[0][0],    │
│ (Concatenate)       │                   │            │ abs_ch1[0][0],    │
│                     │                   │            │ abs_ch2[0][0]     │
├─────────────────────┼───────────────────┼────────────┼───────────────────┤
│ maxpool_0           │ (None, 123, 240)  │          0 │ sinc_concat[0][0] │
│ (MaxPooling1D)      │                   │            │                   │
├─────────────────────┼───────────────────┼────────────┼───────────────────┤
│ laynorm_0           │ (None, 123, 240)  │        480 │ maxpool_0[0][0]   │
│ (LayerNormalizatio… │                   │            │                   │
├─────────────────────┼───────────────────┼────────────┼───────────────────┤
│ act_0 (Activation)  │ (None, 123, 240)  │          0 │ laynorm_0[0][0]   │
├─────────────────────┼───────────────────┼────────────┼───────────────────┤
│ drop_0 (Dropout)    │ (None, 123, 240)  │          0 │ act_0[0][0]       │
├─────────────────────┼───────────────────┼────────────┼───────────────────┤
│ conv1d_1 (Conv1D)   │ (None, 119, 60)   │     72,000 │ drop_0[0][0]      │
├─────────────────────┼───────────────────┼────────────┼───────────────────┤
│ maxpool_1           │ (None, 39, 60)    │          0 │ conv1d_1[0][0]    │
│ (MaxPooling1D)      │                   │            │                   │
├─────────────────────┼───────────────────┼────────────┼───────────────────┤
│ laynorm_1           │ (None, 39, 60)    │        120 │ maxpool_1[0][0]   │
│ (LayerNormalizatio… │                   │            │                   │
├─────────────────────┼───────────────────┼────────────┼───────────────────┤
│ act_1 (Activation)  │ (None, 39, 60)    │          0 │ laynorm_1[0][0]   │
├─────────────────────┼───────────────────┼────────────┼───────────────────┤
│ drop_1 (Dropout)    │ (None, 39, 60)    │          0 │ act_1[0][0]       │
├─────────────────────┼───────────────────┼────────────┼───────────────────┤
│ conv1d_2 (Conv1D)   │ (None, 35, 60)    │     18,000 │ drop_1[0][0]      │
├─────────────────────┼───────────────────┼────────────┼───────────────────┤
│ maxpool_2           │ (None, 11, 60)    │          0 │ conv1d_2[0][0]    │
│ (MaxPooling1D)      │                   │            │                   │
├─────────────────────┼───────────────────┼────────────┼───────────────────┤
│ laynorm_2           │ (None, 11, 60)    │        120 │ maxpool_2[0][0]   │
│ (LayerNormalizatio… │                   │            │                   │
├─────────────────────┼───────────────────┼────────────┼───────────────────┤
│ act_2 (Activation)  │ (None, 11, 60)    │          0 │ laynorm_2[0][0]   │
├─────────────────────┼───────────────────┼────────────┼───────────────────┤
│ drop_2 (Dropout)    │ (None, 11, 60)    │          0 │ act_2[0][0]       │
├─────────────────────┼───────────────────┼────────────┼───────────────────┤
│ flatten (Flatten)   │ (None, 660)       │          0 │ drop_2[0][0]      │
└─────────────────────┴───────────────────┴────────────┴───────────────────┘
 Total params: 93,600 (365.62 KB)
 Trainable params: 90,240 (352.50 KB)
 Non-trainable params: 3,360 (13.12 KB)
[1m1/3[0m [32m━━━━━━[0m[37m━━━━━━━━━━━━━━[0m [1m0s[0m 302ms/step[1m2/3[0m [32m━━━━━━━━━━━━━[0m[37m━━━━━━━[0m [1m0s[0m 91ms/step [1m3/3[0m [32m━━━━━━━━━━━━━━━━━━━━[0m[37m[0m [1m0s[0m 159ms/step[1m3/3[0m [32m━━━━━━━━━━━━━━━━━━━━[0m[37m[0m [1m1s[0m 165ms/step
…
