…
(array(['dws', 'jog', 'sit', 'std', 'ups', 'wlk'], dtype='<U3'), array([ 449,  480, 1282, 1146,  546, 1308]))
(array([1, 2, 3, 4, 5, 6]), array([1282, 1146, 1308,  546,  449,  480]))
-----------------
Training data shape: (4168, 400, 3)
Validation data shape: (1043, 400, 3)
Testing data shape: (1419, 400, 3)
0 <function rotation_transform_vectorized at 0x14bcb2566340>
Model: "sincnet_base_model_simclr"
┏━━━━━━━━━━━━━━━━━━━━━━━━━━━━━━━━━┳━━━━━━━━━━━━━━━━━━━━━━━━┳━━━━━━━━━━━━━━━┓
┃ Layer (type)                    ┃ Output Shape           ┃       Param # ┃
┡━━━━━━━━━━━━━━━━━━━━━━━━━━━━━━━━━╇━━━━━━━━━━━━━━━━━━━━━━━━╇━━━━━━━━━━━━━━━┩
│ input (InputLayer)              │ (None, 400, 3)         │             0 │
├─────────────────────────────────┼────────────────────────┼───────────────┤
│ sincconv (SincConv1D)           │ (None, 400, 48)        │            96 │
├─────────────────────────────────┼────────────────────────┼───────────────┤
│ batch_normalization             │ (None, 400, 48)        │           192 │
│ (BatchNormalization)            │                        │               │
├─────────────────────────────────┼────────────────────────┼───────────────┤
│ leaky_re_lu (LeakyReLU)         │ (None, 400, 48)        │             0 │
├─────────────────────────────────┼────────────────────────┼───────────────┤
│ conv1d (Conv1D)                 │ (None, 385, 64)        │        49,216 │
├─────────────────────────────────┼────────────────────────┼───────────────┤
│ dropout (Dropout)               │ (None, 385, 64)        │             0 │
├─────────────────────────────────┼────────────────────────┼───────────────┤
│ conv1d_1 (Conv1D)               │ (None, 378, 96)        │        49,248 │
├─────────────────────────────────┼────────────────────────┼───────────────┤
│ dropout_1 (Dropout)             │ (None, 378, 96)        │             0 │
├─────────────────────────────────┼────────────────────────┼───────────────┤
│ global_max_pooling1d            │ (None, 96)             │             0 │
│ (GlobalMaxPooling1D)            │                        │               │
├─────────────────────────────────┼────────────────────────┼───────────────┤
│ dense (Dense)                   │ (None, 256)            │        24,832 │
├─────────────────────────────────┼────────────────────────┼───────────────┤
│ activation (Activation)         │ (None, 256)            │             0 │
├─────────────────────────────────┼────────────────────────┼───────────────┤
│ dense_1 (Dense)                 │ (None, 128)            │        32,896 │
├─────────────────────────────────┼────────────────────────┼───────────────┤
│ activation_1 (Activation)       │ (None, 128)            │             0 │
├─────────────────────────────────┼────────────────────────┼───────────────┤
│ dense_2 (Dense)                 │ (None, 50)             │         6,450 │
└─────────────────────────────────┴────────────────────────┴───────────────┘
 Total params: 162,930 (636.45 KB)
 Trainable params: 162,834 (636.07 KB)
 Non-trainable params: 96 (384.00 B)

Layer indices for model 'sincnet_base_model_simclr':
   idx  type                          name                                      output shape
  -----------------------------------------------------------------------------------------------
…
       [  4,   6,   5, 117,  16,   0],
       [  5,   8,   8,   5,  82,   4],
       [  0,   0,   1,   2,   2, 128]]), 'F1 Macro': 0.8779280538291944, 'F1 Micro': 0.9090909090909091, 'F1 Weighted': 0.9096489804575074, 'Precision': 0.8766948967278355, 'Recall': 0.8824715388759633, 'Kappa': 0.8865904204898176}
Model: "sincnet_base_model_simclr_layer_8"
┏━━━━━━━━━━━━━━━━━━━━━━━━━━━━━━━━━┳━━━━━━━━━━━━━━━━━━━━━━━━┳━━━━━━━━━━━━━━━┓
┃ Layer (type)                    ┃ Output Shape           ┃       Param # ┃
┡━━━━━━━━━━━━━━━━━━━━━━━━━━━━━━━━━╇━━━━━━━━━━━━━━━━━━━━━━━━╇━━━━━━━━━━━━━━━┩
│ input (InputLayer)              │ (None, 400, 3)         │             0 │
├─────────────────────────────────┼────────────────────────┼───────────────┤
│ sincconv (SincConv1D)           │ (None, 400, 48)        │            96 │
├─────────────────────────────────┼────────────────────────┼───────────────┤
│ batch_normalization             │ (None, 400, 48)        │           192 │
│ (BatchNormalization)            │                        │               │
├─────────────────────────────────┼────────────────────────┼───────────────┤
│ leaky_re_lu (LeakyReLU)         │ (None, 400, 48)        │             0 │
├─────────────────────────────────┼────────────────────────┼───────────────┤
│ conv1d (Conv1D)                 │ (None, 385, 64)        │        49,216 │
├─────────────────────────────────┼────────────────────────┼───────────────┤
│ dropout (Dropout)               │ (None, 385, 64)        │             0 │
├─────────────────────────────────┼────────────────────────┼───────────────┤
│ conv1d_1 (Conv1D)               │ (None, 378, 96)        │        49,248 │
├─────────────────────────────────┼────────────────────────┼───────────────┤
│ dropout_1 (Dropout)             │ (None, 378, 96)        │             0 │
├─────────────────────────────────┼────────────────────────┼───────────────┤
│ global_max_pooling1d            │ (None, 96)             │             0 │
│ (GlobalMaxPooling1D)            │                        │               │
└─────────────────────────────────┴────────────────────────┴───────────────┘
 Total params: 98,752 (385.75 KB)
 Trainable params: 49,248 (192.38 KB)
 Non-trainable params: 49,504 (193.38 KB)
[1m1/3[0m [32m━━━━━━[0m[37m━━━━━━━━━━━━━━[0m [1m0s[0m 306ms/step[1m2/3[0m [32m━━━━━━━━━━━━━[0m[37m━━━━━━━[0m [1m0s[0m 132ms/step[1m3/3[0m [32m━━━━━━━━━━━━━━━━━━━━[0m[37m[0m [1m0s[0m 172ms/step[1m3/3[0m [32m━━━━━━━━━━━━━━━━━━━━[0m[37m[0m [1m1s[0m 177ms/step
…
