…
(array(['dws', 'jog', 'sit', 'std', 'ups', 'wlk'], dtype='<U3'), array([ 449,  480, 1282, 1146,  546, 1308]))
(array([1, 2]), array([1282, 1146]))
-----------------
Training data shape: (1942, 400, 3)
Validation data shape: (486, 400, 3)
Testing data shape: (695, 400, 3)
0 <function rotation_transform_vectorized at 0x14e0d44cade0>
Model: "sincnet_model_simclr"
┏━━━━━━━━━━━━━━━━━━━━━━━━━━━━━━━━━┳━━━━━━━━━━━━━━━━━━━━━━━━┳━━━━━━━━━━━━━━━┓
┃ Layer (type)                    ┃ Output Shape           ┃       Param # ┃
┡━━━━━━━━━━━━━━━━━━━━━━━━━━━━━━━━━╇━━━━━━━━━━━━━━━━━━━━━━━━╇━━━━━━━━━━━━━━━┩
│ input (InputLayer)              │ (None, 400, 3)         │             0 │
├─────────────────────────────────┼────────────────────────┼───────────────┤
│ ln_inp_flatten (Reshape)        │ (None, 1200)           │             0 │
├─────────────────────────────────┼────────────────────────┼───────────────┤
│ ln_inp (LayerNorm)              │ (None, 1200)           │         2,400 │
├─────────────────────────────────┼────────────────────────┼───────────────┤
│ ln_inp_restore (Reshape)        │ (None, 400, 3)         │             0 │
├─────────────────────────────────┼────────────────────────┼───────────────┤
│ channel_mix (Conv1D)            │ (None, 400, 1)         │             3 │
├─────────────────────────────────┼────────────────────────┼───────────────┤
│ sincconv (SincConv_fast)        │ (None, 350, 20)        │            40 │
├─────────────────────────────────┼────────────────────────┼───────────────┤
│ abs_sinc (AbsoluteValue)        │ (None, 350, 20)        │             0 │
├─────────────────────────────────┼────────────────────────┼───────────────┤
│ maxpool_0 (MaxPooling1D)        │ (None, 116, 20)        │             0 │
├─────────────────────────────────┼────────────────────────┼───────────────┤
│ laynorm_0 (LayerNormalization)  │ (None, 116, 20)        │            40 │
├─────────────────────────────────┼────────────────────────┼───────────────┤
│ act_0 (Activation)              │ (None, 116, 20)        │             0 │
├─────────────────────────────────┼────────────────────────┼───────────────┤
│ drop_0 (Dropout)                │ (None, 116, 20)        │             0 │
├─────────────────────────────────┼────────────────────────┼───────────────┤
│ conv1d_1 (Conv1D)               │ (None, 112, 60)        │         6,000 │
├─────────────────────────────────┼────────────────────────┼───────────────┤
│ maxpool_1 (MaxPooling1D)        │ (None, 37, 60)         │             0 │
├─────────────────────────────────┼────────────────────────┼───────────────┤
│ laynorm_1 (LayerNormalization)  │ (None, 37, 60)         │           120 │
├─────────────────────────────────┼────────────────────────┼───────────────┤
│ act_1 (Activation)              │ (None, 37, 60)         │             0 │
├─────────────────────────────────┼────────────────────────┼───────────────┤
│ drop_1 (Dropout)                │ (None, 37, 60)         │             0 │
├─────────────────────────────────┼────────────────────────┼───────────────┤
│ conv1d_2 (Conv1D)               │ (None, 33, 60)         │        18,000 │
├─────────────────────────────────┼────────────────────────┼───────────────┤
│ maxpool_2 (MaxPooling1D)        │ (None, 11, 60)         │             0 │
├─────────────────────────────────┼────────────────────────┼───────────────┤
│ laynorm_2 (LayerNormalization)  │ (None, 11, 60)         │           120 │
├─────────────────────────────────┼────────────────────────┼───────────────┤
│ act_2 (Activation)              │ (None, 11, 60)         │             0 │
├─────────────────────────────────┼────────────────────────┼───────────────┤
│ drop_2 (Dropout)                │ (None, 11, 60)         │             0 │
├─────────────────────────────────┼────────────────────────┼───────────────┤
│ flatten (Flatten)               │ (None, 660)            │             0 │
├─────────────────────────────────┼────────────────────────┼───────────────┤
│ dense (Dense)                   │ (None, 256)            │       169,216 │
├─────────────────────────────────┼────────────────────────┼───────────────┤
│ activation (Activation)         │ (None, 256)            │             0 │
├─────────────────────────────────┼────────────────────────┼───────────────┤
│ dense_1 (Dense)                 │ (None, 128)            │        32,896 │
├─────────────────────────────────┼────────────────────────┼───────────────┤
│ activation_1 (Activation)       │ (None, 128)            │             0 │
├─────────────────────────────────┼────────────────────────┼───────────────┤
│ dense_2 (Dense)                 │ (None, 50)             │         6,450 │
└─────────────────────────────────┴────────────────────────┴───────────────┘
 Total params: 235,285 (919.08 KB)
 Trainable params: 235,285 (919.08 KB)
 Non-trainable params: 0 (0.00 B)
epoch: 1 loss: 13.728
[Epoch 1] sincconv | low: 11.74±7.00 Hz | high: 13.46±7.00 Hz | bw: 1.72±0.00 Hz
epoch: 2 loss: 13.658
epoch: 3 loss: 13.793
epoch: 4 loss: 13.692
epoch: 5 loss: 13.695
epoch: 6 loss: 13.717
…
━━━━━━━[0m[37m[0m [1m0s[0m 10ms/step
{'Confusion Matrix': array([[358,   2],
       [ 14, 321]]), 'F1 Macro': 0.9769129835401199, 'F1 Micro': 0.9769784172661871, 'F1 Weighted': 0.9769571955171923, 'Precision': 0.9780868204667266, 'Recall': 0.9763266998341625, 'Kappa': 0.9538397675383977}
Model: "sincnet_model_simclr_layer_21"
┏━━━━━━━━━━━━━━━━━━━━━━━━━━━━━━━━━┳━━━━━━━━━━━━━━━━━━━━━━━━┳━━━━━━━━━━━━━━━┓
┃ Layer (type)                    ┃ Output Shape           ┃       Param # ┃
┡━━━━━━━━━━━━━━━━━━━━━━━━━━━━━━━━━╇━━━━━━━━━━━━━━━━━━━━━━━━╇━━━━━━━━━━━━━━━┩
│ input (InputLayer)              │ (None, 400, 3)         │             0 │
├─────────────────────────────────┼────────────────────────┼───────────────┤
│ ln_inp_flatten (Reshape)        │ (None, 1200)           │             0 │
├─────────────────────────────────┼────────────────────────┼───────────────┤
│ ln_inp (LayerNorm)              │ (None, 1200)           │         2,400 │
├─────────────────────────────────┼────────────────────────┼───────────────┤
│ ln_inp_restore (Reshape)        │ (None, 400, 3)         │             0 │
├─────────────────────────────────┼────────────────────────┼───────────────┤
│ channel_mix (Conv1D)            │ (None, 400, 1)         │             3 │
├─────────────────────────────────┼────────────────────────┼───────────────┤
│ sincconv (SincConv_fast)        │ (None, 350, 20)        │            40 │
├─────────────────────────────────┼────────────────────────┼───────────────┤
│ abs_sinc (AbsoluteValue)        │ (None, 350, 20)        │             0 │
├─────────────────────────────────┼────────────────────────┼───────────────┤
│ maxpool_0 (MaxPooling1D)        │ (None, 116, 20)        │             0 │
├─────────────────────────────────┼────────────────────────┼───────────────┤
│ laynorm_0 (LayerNormalization)  │ (None, 116, 20)        │            40 │
├─────────────────────────────────┼────────────────────────┼───────────────┤
│ act_0 (Activation)              │ (None, 116, 20)        │             0 │
├─────────────────────────────────┼────────────────────────┼───────────────┤
│ drop_0 (Dropout)                │ (None, 116, 20)        │             0 │
├─────────────────────────────────┼────────────────────────┼───────────────┤
│ conv1d_1 (Conv1D)               │ (None, 112, 60)        │         6,000 │
├─────────────────────────────────┼────────────────────────┼───────────────┤
│ maxpool_1 (MaxPooling1D)        │ (None, 37, 60)         │             0 │
├─────────────────────────────────┼────────────────────────┼───────────────┤
│ laynorm_1 (LayerNormalization)  │ (None, 37, 60)         │           120 │
├─────────────────────────────────┼────────────────────────┼───────────────┤
│ act_1 (Activation)              │ (None, 37, 60)         │             0 │
├─────────────────────────────────┼────────────────────────┼───────────────┤
│ drop_1 (Dropout)                │ (None, 37, 60)         │             0 │
├─────────────────────────────────┼────────────────────────┼───────────────┤
│ conv1d_2 (Conv1D)               │ (None, 33, 60)         │        18,000 │
├─────────────────────────────────┼────────────────────────┼───────────────┤
│ maxpool_2 (MaxPooling1D)        │ (None, 11, 60)         │             0 │
├─────────────────────────────────┼────────────────────────┼───────────────┤
│ laynorm_2 (LayerNormalization)  │ (None, 11, 60)         │           120 │
├─────────────────────────────────┼────────────────────────┼───────────────┤
│ act_2 (Activation)              │ (None, 11, 60)         │             0 │
├─────────────────────────────────┼────────────────────────┼───────────────┤
│ drop_2 (Dropout)                │ (None, 11, 60)         │             0 │
├─────────────────────────────────┼────────────────────────┼───────────────┤
│ flatten (Flatten)               │ (None, 660)            │             0 │
└─────────────────────────────────┴────────────────────────┴───────────────┘
 Total params: 26,723 (104.39 KB)
 Trainable params: 18,120 (70.78 KB)
 Non-trainable params: 8,603 (33.61 KB)
[1m1/2[0m [32m━━━━━━━━━━[0m[37m━━━━━━━━━━[0m [1m0s[0m 153ms/step[1m2/2[0m [32m━━━━━━━━━━━━━━━━━━━━[0m[37m[0m [1m0s[0m 135ms/step[1m2/2[0m [32m━━━━━━━━━━━━━━━━━━━━[0m[37m[0m [1m0s[0m 146ms/step
…
