…
(array([1, 2, 3, 4, 5, 6]), array([1226, 1073,  986, 1286, 1374, 1407]))
(array([0, 1, 2, 3, 4, 5]), array([1226, 1073,  986, 1286, 1374, 1407]))
-----------------
Training data shape: (5881, 128, 3)
Validation data shape: (1471, 128, 3)
Testing data shape: (2947, 128, 3)
(5881, 128, 3)
0 <function rotation_transform_vectorized at 0x14ffaa730fe0>
Model: "syncnet_base_model_simclr"
┏━━━━━━━━━━━━━━━━━━━━━━━━━━━━━━━━━┳━━━━━━━━━━━━━━━━━━━━━━━━┳━━━━━━━━━━━━━━━┓
┃ Layer (type)                    ┃ Output Shape           ┃       Param # ┃
┡━━━━━━━━━━━━━━━━━━━━━━━━━━━━━━━━━╇━━━━━━━━━━━━━━━━━━━━━━━━╇━━━━━━━━━━━━━━━┩
│ input (InputLayer)              │ (None, 128, 3)         │             0 │
├─────────────────────────────────┼────────────────────────┼───────────────┤
│ conv1d (Conv1D)                 │ (None, 128, 64)        │           640 │
├─────────────────────────────────┼────────────────────────┼───────────────┤
│ batch_normalization             │ (None, 128, 64)        │           256 │
│ (BatchNormalization)            │                        │               │
├─────────────────────────────────┼────────────────────────┼───────────────┤
│ re_lu (ReLU)                    │ (None, 128, 64)        │             0 │
├─────────────────────────────────┼────────────────────────┼───────────────┤
│ dropout (Dropout)               │ (None, 128, 64)        │             0 │
├─────────────────────────────────┼────────────────────────┼───────────────┤
│ conv1d_1 (Conv1D)               │ (None, 128, 192)       │        37,056 │
├─────────────────────────────────┼────────────────────────┼───────────────┤
│ batch_normalization_1           │ (None, 128, 192)       │           768 │
│ (BatchNormalization)            │                        │               │
├─────────────────────────────────┼────────────────────────┼───────────────┤
│ re_lu_1 (ReLU)                  │ (None, 128, 192)       │             0 │
├─────────────────────────────────┼────────────────────────┼───────────────┤
│ dropout_1 (Dropout)             │ (None, 128, 192)       │             0 │
├─────────────────────────────────┼────────────────────────┼───────────────┤
│ max_pooling1d (MaxPooling1D)    │ (None, 63, 192)        │             0 │
├─────────────────────────────────┼────────────────────────┼───────────────┤
│ conv1d_2 (Conv1D)               │ (None, 63, 384)        │       221,568 │
├─────────────────────────────────┼────────────────────────┼───────────────┤
│ batch_normalization_2           │ (None, 63, 384)        │         1,536 │
│ (BatchNormalization)            │                        │               │
├─────────────────────────────────┼────────────────────────┼───────────────┤
│ re_lu_2 (ReLU)                  │ (None, 63, 384)        │             0 │
├─────────────────────────────────┼────────────────────────┼───────────────┤
│ dropout_2 (Dropout)             │ (None, 63, 384)        │             0 │
├─────────────────────────────────┼────────────────────────┼───────────────┤
│ conv1d_3 (Conv1D)               │ (None, 63, 256)        │       295,168 │
├─────────────────────────────────┼────────────────────────┼───────────────┤
│ batch_normalization_3           │ (None, 63, 256)        │         1,024 │
│ (BatchNormalization)            │                        │               │
├─────────────────────────────────┼────────────────────────┼───────────────┤
│ re_lu_3 (ReLU)                  │ (None, 63, 256)        │             0 │
├─────────────────────────────────┼────────────────────────┼───────────────┤
│ dropout_3 (Dropout)             │ (None, 63, 256)        │             0 │
├─────────────────────────────────┼────────────────────────┼───────────────┤
│ conv1d_4 (Conv1D)               │ (None, 63, 256)        │       196,864 │
├─────────────────────────────────┼────────────────────────┼───────────────┤
│ batch_normalization_4           │ (None, 63, 256)        │         1,024 │
│ (BatchNormalization)            │                        │               │
├─────────────────────────────────┼────────────────────────┼───────────────┤
│ re_lu_4 (ReLU)                  │ (None, 63, 256)        │             0 │
├─────────────────────────────────┼────────────────────────┼───────────────┤
│ dropout_4 (Dropout)             │ (None, 63, 256)        │             0 │
├─────────────────────────────────┼────────────────────────┼───────────────┤
│ max_pooling1d_1 (MaxPooling1D)  │ (None, 31, 256)        │             0 │
├─────────────────────────────────┼────────────────────────┼───────────────┤
│ conv1d_5 (Conv1D)               │ (None, 27, 512)        │       655,872 │
├─────────────────────────────────┼────────────────────────┼───────────────┤
│ batch_normalization_5           │ (None, 27, 512)        │         2,048 │
│ (BatchNormalization)            │                        │               │
├─────────────────────────────────┼────────────────────────┼───────────────┤
│ re_lu_5 (ReLU)                  │ (None, 27, 512)        │             0 │
├─────────────────────────────────┼────────────────────────┼───────────────┤
│ dropout_5 (Dropout)             │ (None, 27, 512)        │             0 │
├─────────────────────────────────┼────────────────────────┼───────────────┤
│ global_max_pooling1d            │ (None, 512)            │             0 │
│ (GlobalMaxPooling1D)            │                        │               │
├─────────────────────────────────┼────────────────────────┼───────────────┤
│ dense (Dense)                   │ (None, 256)            │       131,328 │
├─────────────────────────────────┼────────────────────────┼───────────────┤
│ activation (Activation)         │ (None, 256)            │             0 │
├─────────────────────────────────┼────────────────────────┼───────────────┤
│ dense_1 (Dense)                 │ (None, 128)            │        32,896 │
├─────────────────────────────────┼────────────────────────┼───────────────┤
│ activation_1 (Activation)       │ (None, 128)            │             0 │
├─────────────────────────────────┼────────────────────────┼───────────────┤
│ dense_2 (Dense)                 │ (None, 50)             │         6,450 │
└─────────────────────────────────┴────────────────────────┴───────────────┘
 Total params: 1,584,498 (6.04 MB)
 Trainable params: 1,581,170 (6.03 MB)
 Non-trainable params: 3,328 (13.00 KB)
epoch: 1 loss: 13.190
epoch: 2 loss: 11.877
epoch: 3 loss: 11.724
epoch: 4 loss: 11.658
epoch: 5 loss: 11.590
epoch: 6 loss: 11.710
epoch: 7 loss: 11.168
epoch: 8 loss: 11.349
epoch: 9 loss: 11.184
epoch: 10 loss: 10.709
…
       [  0,   0,   0,  19, 299, 173],
       [  0,   0,   0,  17, 380, 135],
       [  0,   0,   0,  11, 192, 334]]), 'F1 Macro': 0.5577907625625907, 'F1 Micro': 0.5995928062436376, 'F1 Weighted': 0.5497097689734278, 'Precision': 0.6469311733983852, 'Recall': 0.6030836258963858, 'Kappa': 0.5171522946256037}
Model: "syncnet_base_model_simclr_layer_27"
┏━━━━━━━━━━━━━━━━━━━━━━━━━━━━━━━━━┳━━━━━━━━━━━━━━━━━━━━━━━━┳━━━━━━━━━━━━━━━┓
┃ Layer (type)                    ┃ Output Shape           ┃       Param # ┃
┡━━━━━━━━━━━━━━━━━━━━━━━━━━━━━━━━━╇━━━━━━━━━━━━━━━━━━━━━━━━╇━━━━━━━━━━━━━━━┩
│ input (InputLayer)              │ (None, 128, 3)         │             0 │
├─────────────────────────────────┼────────────────────────┼───────────────┤
│ conv1d (Conv1D)                 │ (None, 128, 64)        │           640 │
├─────────────────────────────────┼────────────────────────┼───────────────┤
│ batch_normalization             │ (None, 128, 64)        │           256 │
│ (BatchNormalization)            │                        │               │
├─────────────────────────────────┼────────────────────────┼───────────────┤
│ re_lu (ReLU)                    │ (None, 128, 64)        │             0 │
├─────────────────────────────────┼────────────────────────┼───────────────┤
│ dropout (Dropout)               │ (None, 128, 64)        │             0 │
├─────────────────────────────────┼────────────────────────┼───────────────┤
│ conv1d_1 (Conv1D)               │ (None, 128, 192)       │        37,056 │
├─────────────────────────────────┼────────────────────────┼───────────────┤
│ batch_normalization_1           │ (None, 128, 192)       │           768 │
│ (BatchNormalization)            │                        │               │
├─────────────────────────────────┼────────────────────────┼───────────────┤
│ re_lu_1 (ReLU)                  │ (None, 128, 192)       │             0 │
├─────────────────────────────────┼────────────────────────┼───────────────┤
│ dropout_1 (Dropout)             │ (None, 128, 192)       │             0 │
├─────────────────────────────────┼────────────────────────┼───────────────┤
│ max_pooling1d (MaxPooling1D)    │ (None, 63, 192)        │             0 │
├─────────────────────────────────┼────────────────────────┼───────────────┤
│ conv1d_2 (Conv1D)               │ (None, 63, 384)        │       221,568 │
├─────────────────────────────────┼────────────────────────┼───────────────┤
│ batch_normalization_2           │ (None, 63, 384)        │         1,536 │
│ (BatchNormalization)            │                        │               │
├─────────────────────────────────┼────────────────────────┼───────────────┤
│ re_lu_2 (ReLU)                  │ (None, 63, 384)        │             0 │
├─────────────────────────────────┼────────────────────────┼───────────────┤
│ dropout_2 (Dropout)             │ (None, 63, 384)        │             0 │
├─────────────────────────────────┼────────────────────────┼───────────────┤
│ conv1d_3 (Conv1D)               │ (None, 63, 256)        │       295,168 │
├─────────────────────────────────┼────────────────────────┼───────────────┤
│ batch_normalization_3           │ (None, 63, 256)        │         1,024 │
│ (BatchNormalization)            │                        │               │
├─────────────────────────────────┼────────────────────────┼───────────────┤
│ re_lu_3 (ReLU)                  │ (None, 63, 256)        │             0 │
├─────────────────────────────────┼────────────────────────┼───────────────┤
│ dropout_3 (Dropout)             │ (None, 63, 256)        │             0 │
├─────────────────────────────────┼────────────────────────┼───────────────┤
│ conv1d_4 (Conv1D)               │ (None, 63, 256)        │       196,864 │
├─────────────────────────────────┼────────────────────────┼───────────────┤
│ batch_normalization_4           │ (None, 63, 256)        │         1,024 │
│ (BatchNormalization)            │                        │               │
├─────────────────────────────────┼────────────────────────┼───────────────┤
│ re_lu_4 (ReLU)                  │ (None, 63, 256)        │             0 │
├─────────────────────────────────┼────────────────────────┼───────────────┤
│ dropout_4 (Dropout)             │ (None, 63, 256)        │             0 │
├─────────────────────────────────┼────────────────────────┼───────────────┤
│ max_pooling1d_1 (MaxPooling1D)  │ (None, 31, 256)        │             0 │
├─────────────────────────────────┼────────────────────────┼───────────────┤
│ conv1d_5 (Conv1D)               │ (None, 27, 512)        │       655,872 │
├─────────────────────────────────┼────────────────────────┼───────────────┤
│ batch_normalization_5           │ (None, 27, 512)        │         2,048 │
│ (BatchNormalization)            │                        │               │
├─────────────────────────────────┼────────────────────────┼───────────────┤
│ re_lu_5 (ReLU)                  │ (None, 27, 512)        │             0 │
├─────────────────────────────────┼────────────────────────┼───────────────┤
│ dropout_5 (Dropout)             │ (None, 27, 512)        │             0 │
├─────────────────────────────────┼────────────────────────┼───────────────┤
│ global_max_pooling1d            │ (None, 512)            │             0 │
│ (GlobalMaxPooling1D)            │                        │               │
└─────────────────────────────────┴────────────────────────┴───────────────┘
 Total params: 1,413,824 (5.39 MB)
 Trainable params: 854,272 (3.26 MB)
 Non-trainable params: 559,552 (2.13 MB)
[1m1/5[0m [32m━━━━[0m[37m━━━━━━━━━━━━━━━━[0m [1m1s[0m 322ms/step[1m2/5[0m [32m━
…
